sentiment_analysis/app/model.tflite (tflite, 775512 bytes, 5 tensors)

sequential/embedding/embedding_lookup/188781 f4 [10003, 16]
000000 00 4f 58 3b 72 3a 53 bb 8a ee 6f 3c 88 59 88 3c
       0.0033006072 -0.003223088 0.0146442745 0.016644254
000010 ac de a0 bc 4e 92 df bc 7e a9 5c 3c 78 71 e8 bc
       -0.019637428 -0.027291443 0.013468144 -0.028374419
000020 c3 cf cc 3c 67 55 83 bc d5 45 99 3c 04 ea 63 bc
       0.025001412 -0.016031934 0.018710056 -0.013910774
000030 67 96 d6 3b 7a 9d 82 bb 54 bb dc ba 36 39 cf 3c
       0.006548691 -0.003986058 -0.0016840496 0.025295835
000040 54 6e ce bd b6 6b 30 3e 37 dc f3 bd bc 18 0f be
       -0.10079637 0.17228588 -0.11907237 -0.13974279
000050 9e a3 00 3e b5 5d ab 3d fc b6 50 be 5c 94 26 3e
       0.12562415 0.083674826 -0.20382303 0.16267532
000060 0b 0a af 3d 6c 2e 86 bd cb 94 ae bd 26 42 14 3e
       0.085468374 -0.06551823 -0.08524474 0.14478359
000070 60 87 bf 3d e5 37 27 be 9d 46 03 be 64 af ed bd
       0.093519926 -0.16329916 -0.12819906 -0.11605719
000080 78 fa 10 3e 9a 3b c2 3d 7b 37 ee bd 38 48 8a bd
       0.14158046 0.09484024 -0.11631676 -0.06752056
000090 2e f5 f2 3d e8 e2 f9 3d 8b 10 95 bd bc 2e 94 3d
       0.118631706 0.12201482 -0.07278546 0.072354764
0000a0 c8 82 7b 3d bb 66 77 bd 55 65 a7 bd da 6d 19 3e
       0.06140402 -0.060400706 -0.081736244 0.14983311
0000b0 5b 14 1a 3e 5c 1e e1 bd 6f 12 a8 bd ff 13 17 be
       0.15046827 -0.10992119 -0.08206641 -0.14753722
0000c0 65 ad 19 be 4a a4 1b 3e da f3 50 be e4 b3 2b be
       -0.15007551 0.1519939 -0.20405522 -0.16767842
0000d0 ab 73 64 3e bc 2e 58 3e d0 b6 2d be 9f 4b 35 3e
       0.22309749 0.21111578 -0.16964269 0.17704628
0000e0 cc 3c 36 3e 51 a3 d5 bd 25 57 48 be 7a c7 39 3e
       0.1779663 -0.10431541 -0.19564493 0.181425
0000f0 ff c0 08 3e ee 0d 0d be f6 4e 0c be a4 7f 2f be
       0.13354872 -0.13774845 -0.13701996 -0.17138535
000100 9f 75 a2 be ab 7f 42 3e 88 8c 1a be 57 9b 74 be
       -0.31730363 0.18994014 -0.15092671 -0.23887382
000110 5c 88 24 3e f0 8d f2 3d c8 60 5a be 92 44 36 3e
       0.16067642 0.11843479 -0.21325982 0.17799595
000120 13 91 3e 3e 03 c8 77 be c5 37 47 be 61 83 f2 3d
       0.18610029 -0.24197392 -0.19454868 0.11841465
000130 1a 82 f1 3d b1 c5 4a be 8c 47 2a be f9 9d 4f be
       0.11792393 -0.19801976 -0.16628855 -0.20275106
000140 d8 48 10 bf d2 f5 5d 3d f1 ea 97 bc 1a 54 40 be
       -0.5636115 0.05418951 -0.018544646 -0.18782082
000150 d1 30 d4 3d 4a fd af 3d 40 12 4e be d8 68 84 3d
       0.103608735 0.08593233 -0.2012415 0.0646531
000160 8b 12 65 3e 20 80 f4 bd 38 0e bb bd 27 ad a1 3d
       0.22370355 -0.119385004 -0.091335714 0.07894354
000170 0a cd d3 3d 27 8b eb bc 3a cd 70 be 8b e7 4e bd
       0.103418425 -0.028752876 -0.23515788 -0.050513785
000180 b2 76 aa be d0 81 97 3e 07 c3 91 be e0 d5 a0 be
       -0.33293682 0.29591227 -0.28469107 -0.31413174
000190 48 49 a3 3e 03 3e 82 3e a5 43 a8 be 89 05 95 3e
       0.31891847 0.25437936 -0.3286411 0.29105785
0001a0 a8 a2 96 3e db 91 95 be 4b 41 88 be 8b d4 7b 3e
       0.29420972 -0.2921284 -0.26612315 0.24592797
0001b0 15 c5 b6 3e 8e 15 a5 be 2d 49 8e be 67 ce 85 be
       0.35697237 -0.32243007 -0.27790204 -0.26134035
0001c0 51 8d ab bb 1d bc dc 3e ce 40 db be 55 8b 90 be
       -0.005235352 0.4311227 -0.4282288 -0.28231302
0001d0 ff f7 e0 3e 66 62 dd 3e 14 63 a7 be ff 2a d4 3e
       0.43939206 0.43239135 -0.32692778 0.41439053
0001e0 24 42 92 3e 8c e1 8b be e3 73 ce be a5 a7 d2 3e
       0.28566086 -0.27320516 -0.4032279 0.41143528
0001f0 aa 5b a0 3e 4f ed bf be 1e 35 9c be e1 9a d6 be
       0.31319934 -0.3748574 -0.30509275 -0.41915038
000200 3c 17 68 be 33 cb 91 3e 10 5d 4c be d2 a1 6c be
       -0.22665113 0.2847534 -0.19957376 -0.23108605
000210 d0 b4 98 3e 3b a9 7c 3e e1 e0 3d be 61 2b 97 3e
       0.2982545 0.24673931 -0.18542816 0.29525283
000220 af c2 54 3e 96 a6 57 be 1c c1 86 be 42 5a 83 3e
       0.20777391 -0.21059641 -0.26319206 0.256548
000230 01 77 53 3e df 89 83 be f7 34 0e be bf 0f 92 be
       0.20650865 -0.25691125 -0.13887392 -0.28527638
000240 1d 04 34 bd a5 d6 2b 3e d0 e0 55 be 22 53 cf bd
       -0.043949235 0.16781099 -0.2088654 -0.10123278
000250 e2 d9 2c 3e 82 94 02 3e 88 e6 34 bd 57 1f 54 3e
       0.1687999 0.12751964 -0.044165164 0.2071508
000260 66 16 97 3d 82 7a a6 bd b8 d7 1f be e1 6c 3c 3e
       0.07377319 -0.08128835 -0.15609634 0.18400909
000270 3c 47 86 3d cb 8a 31 be 96 51 ee bc a6 92 3f be
       0.06556556 -0.17338102 -0.029091638 -0.18708286
000280 70 9b 9c bd 3b 4d 26 3e 90 a5 2e be b4 1f 0a be
       -0.07646835 0.16240399 -0.17055345 -0.13488656
000290 4b b8 0a 3e ab 48 54 3e 00 4b 6c be f7 61 11 3e
       0.13546865 0.20730846 -0.23075485 0.14197527
0002a0 45 ac 2d 3e 96 0a f4 bd 45 82 18 be 53 0f 4b 3e
       0.16960247 -0.119160816 -0.14893444 0.19830064
0002b0 29 d4 fe 3d 28 98 fd bd 59 3b fd bd 34 e4 4f be
       0.1244281 -0.12382537 -0.12364835 -0.20301896
0002c0 f1 c2 52 be b3 8e 7a 3e f9 38 a4 be 67 bc 94 be
       -0.20582177 0.24468498 -0.32074717 -0.2904999
0002d0 66 79 85 3e 59 57 8e 3e a6 37 83 be 85 31 8b 3e
       0.26069182 0.27801016 -0.25628394 0.27186218
0002e0 de c0 6b 3e 1f a5 61 be b6 40 a5 be 7f 5a 8b 3e
       0.23022792 -0.22035645 -0.32275933 0.2721748
0002f0 2a 9c 49 3e a0 70 96 be f1 91 4a be e6 e9 9e be
       0.19688478 -0.293828 -0.19782235 -0.31037825
000300 a7 9e 78 3e c6 49 4c 3d 36 b9 9e bd 2f 1e 36 bd
       0.24279271 0.049875043 -0.0775017 -0.04446238
000310 d3 17 a6 3c d8 a6 e8 3d 77 72 53 3d ad 21 59 3d
       0.020275032 0.11359948 0.051622834 0.05301063
000320 a5 de 0d be 67 f5 b5 bb 86 89 a4 3c 90 1a ba 3d
       -0.13854463 -0.005552936 0.020085108 0.09087098
000330 84 90 e7 bc f3 48 67 bd bc 33 f3 3d 6b aa 49 bd
       -0.028267153 -0.056466054 0.11875102 -0.04923479
000340 6e d2 5e bd f7 df 96 3e f5 fe a1 be 9e 00 93 be
       -0.0543999 0.29467747 -0.3163983 -0.28711408
000350 c3 d9 7c 3e d0 cc 93 3e 88 97 72 be f2 ce 8e 3e
       0.24692445 0.28867197 -0.23690617 0.27892262
000360 0e 02 7d 3e 96 29 8d be 38 16 97 be c1 28 96 3e
       0.24707815 -0.2757079 -0.2950914 0.29327968
000370 b1 3b 7b 3e 63 7d 86 be fb 17 7f be 58 e1 99 be
       0.24534489 -0.26267537 -0.24911492 -0.30054736
000380 4f 38 c2 be 16 0d 80 bd f1 03 ee ba 91 c6 23 bc
       -0.37933585 -0.06252496 -0.0018159134 -0.009996072
000390 cd 8f 88 b8 8f 4c 89 bd a6 98 7b bd 72 3b 3f bd
       -6.51177e-05 -0.067040555 -0.061424874 -0.04668755
0003a0 a9 1f 2c 3e 0f fd d5 bc 29 e7 26 bc 39 32 94 bc
       0.16808952 -0.026121644 -0.010186949 -0.018090354
0003b0 20 35 15 3d 7f 08 c1 3c 55 d2 ec bd cb df 9a 3d
       0.036427617 0.023563622 -0.11563555 0.07562216
0003c0 fb 4b 94 be ff 51 e0 3b ec da 22 bd c5 be c9 bd
       -0.28964218 0.006845712 -0.03975956 -0.098508395
0003d0 56 92 35 3b 7f d3 5c 3d 5b 95 8f bd a9 63 6d 3d
       0.0027705631 0.053912636 -0.07010909 0.05795637
0003e0 16 6b 09 3e 69 18 9f bc 10 ac 0e bb 78 d1 f8 3c
       0.13419756 -0.01942082 -0.0021770038 0.03037332
0003f0 37 3c c5 3d 9c 25 4a 3c 90 16 33 be 17 86 73 bd
       0.09630626 0.012338068 -0.17489076 -0.05945405

sequential/dense_1/BiasAdd/ReadVariableOp/resource f4 [2]
000000 88 3e 73 3f 94 3e 73 bf
       0.9501729 -0.9501736

sequential/dense/BiasAdd/ReadVariableOp/resource f4 [16]
000000 c3 65 01 be be 4f b5 bc a5 7a 2d 3d ef 60 80 bb
       -0.12636475 -0.02213275 0.04235329 -0.0039178054
000010 6e ee ca bb 10 e9 a8 bc ca 36 4f bc 57 33 af bc
       -0.006192974 -0.020618945 -0.01264734 -0.021386785
000020 1d 27 4f bc dc 0a eb bd 54 c8 02 be b1 52 b5 bc
       -0.012643603 -0.11476681 -0.12771732 -0.022134157
000030 c2 9e 04 be 52 83 81 bc 00 00 00 00 35 3a 4f bc
       -0.12951186 -0.015809689 0.0 -0.012648155

sequential/dense/MatMul f4 [16, 16]
000000 0a 98 25 40 32 8d 94 c0 4f e2 02 40 04 81 73 3f
       2.5874047 -4.6422358 2.0450628 0.9511874
000010 f9 6e ce bf 30 b5 84 bf 02 f4 be 3f ac 9d 85 bf
       -1.6127616 -1.0367794 1.4918215 -1.0438743
000020 22 ad 40 bf b8 4a 2e 3f b4 2a bf 3f 1e bb de bf
       -0.7526418 0.6808276 1.4934907 -1.7400854
000030 f6 2f 05 bf e0 7f 92 3f 49 56 f8 3f 8a 54 92 3f
       -0.5202631 1.1445274 1.9401332 1.1432049
000040 51 2d 7a 3e 92 aa 37 3d ce a2 f7 3d a4 fb 30 3e
       0.2443135 0.044840403 0.120915994 0.17283493
000050 a6 9f ad bb a7 23 8f 3d 6a 8c 7f be 13 f3 14 3e
       -0.0052985726 0.06989222 -0.24955907 0.1454585
000060 81 46 d2 3e 82 a7 ae 3d 6f 79 11 be 8c c7 b0 3e
       0.41069415 0.08528043 -0.1420648 0.34527242
000070 54 93 77 bc 90 8d c2 3e 2a 11 03 3e 6e b4 a3 be
       -0.015110809 0.3799863 0.12799516 -0.31973594
000080 e7 c2 0b 3f 4c 08 3c bf 73 44 e5 3c cb 28 4f 3e
       0.5459427 -0.7345016 0.02798674 0.20230405
000090 3c b0 46 be 9f 5b 4d 3e c5 67 da 3e 4a 19 0a be
       -0.19403166 0.20054482 0.42657295 -0.1348621
0000a0 f7 bb 97 be 76 4e 41 3e 49 de e4 3e 4b 0a 94 bd
       -0.29635593 0.18877587 0.4470084 -0.07228526
0000b0 35 c2 02 be f6 33 39 3f ec 62 bf 3b 5c 9e 7d bd
       -0.12769397 0.7234491 0.00584065 -0.0619186
0000c0 b3 16 fe bd 89 5f ea 3d 8a 22 cb 3d 44 2e da be
       -0.12406673 0.11444003 0.09918697 -0.42613423
0000d0 e6 eb ba 3e f7 48 ef 3d 62 16 c7 be f6 e3 77 be
       0.365081 0.11683839 -0.38884264 -0.24208054
0000e0 64 0e 90 3e 24 89 df 3e 50 60 5f bd a7 5d d4 be
       0.2813598 0.43659317 -0.05453521 -0.414777
0000f0 cf 6b 83 3e 04 0b 88 3e c7 0c 92 3e 7c eb 6b 3e
       0.2566819 0.26570904 0.28525373 0.23039049
000100 35 c1 a4 be 9c 7b c6 3e 7d 40 43 3e 1b 56 60 be
       -0.32178655 0.3876618 0.19067569 -0.21907847
000110 66 43 81 3c 49 d5 62 3e d4 e1 e1 3d f4 d9 97 3e
       0.015779208 0.22151674 0.110294014 0.29658473
000120 15 a6 a7 be 84 37 35 be 31 d9 be bd c6 2c 87 be
       -0.32743898 -0.17696959 -0.0931877 -0.26401347
000130 f2 cd b4 3d 98 a9 a1 3e 83 f6 4b be 83 7c 7e 3c
       0.088283435 0.31574702 -0.19918256 0.015532616
000140 93 1c a5 be 7d 34 b5 be 6c 83 e4 be 87 7a 30 bd
       -0.32248363 -0.35391608 -0.44631517 -0.0430856
000150 2f 8c 2e be 71 af ba be 01 35 be 3e 58 d1 6d be
       -0.17045663 -0.36461976 0.37149814 -0.2322439
000160 6c 5a bb bd ba c9 c7 bd c5 a8 48 be da f0 99 3e
       -0.09148106 -0.09755273 -0.1959563 0.30066568
000170 dd 83 40 be 61 68 a1 3d 4d 08 b5 be cc 19 7b bd
       -0.18800302 0.07881237 -0.35357895 -0.0613039
000180 e8 3e 02 bc c8 5b 81 be c2 27 bd be b6 d2 a6 be
       -0.007949568 -0.25265336 -0.36944395 -0.32582635
000190 f3 a5 98 3e 98 ed ad be 48 53 a8 3e 9a 89 79 3d
       0.2981411 -0.33970332 0.3287604 0.060922243
0001a0 e6 5c 26 be 90 e5 bf 3d db 2f d2 bd 3a d2 ac be
       -0.16246375 0.093699574 -0.10263034 -0.3375414
0001b0 a0 e2 6e b9 4d 2f 62 be e8 63 a8 be b3 30 b5 be
       -0.00022781873 -0.22088356 -0.32888722 -0.35388717
0001c0 5f ec a1 3e be f2 bd be 2d 62 34 be 8c 05 49 3d
       0.3162565 -0.3709926 -0.17615576 0.049077556
0001d0 3c 1a 89 bd 6e 51 50 3e de 13 47 3c 4b c9 bc be
       -0.06694457 0.20343563 0.012150733 -0.36872324
0001e0 cc 4b 9e be 76 24 a7 bd 61 c0 96 be b5 c0 dc 3e
       -0.30917203 -0.08161251 -0.29443648 0.43115774
0001f0 66 aa 80 3d 18 e6 87 bc b2 64 a4 3d 60 8f b3 3e
       0.06282501 -0.01658921 0.080270186 0.35070324
000200 15 ed c7 be 46 9f af 3d 92 08 b3 be af 1b a2 3e
       -0.39048067 0.08575301 -0.34967476 0.31661746
000210 4f c8 f2 3d 4e 7a 96 3d f8 27 8f be be 8f 28 3c
       0.11854612 0.073475465 -0.2796018 0.010288177
000220 8d 8d e0 be 30 9b bc 3d bf a8 90 be b3 70 b0 bd
       -0.43857995 0.09209287 -0.28253743 -0.08615246
000230 26 df 89 3d 8a 55 f6 bd e6 e2 d3 3e e9 68 d1 be
       0.06732015 -0.12028034 0.41384047 -0.40900353
000240 bc 0d 15 40 70 d4 80 c0 0b fe e5 3f 6d e3 97 3f
       2.3289633 -4.0259323 1.7968153 1.186628
000250 63 a6 8f bf d6 79 96 bf 59 b0 bf 3f bc 13 d4 be
       -1.1222652 -1.1755931 1.4975692 -0.41421306
000260 6c 6e e4 be 56 27 2a 3f df 84 9e 3f 81 fd e7 bf
       -0.44615495 0.6646627 1.2384299 -1.8124238
000270 26 a6 75 bf 1f 25 cf 3f 1f 34 d7 3f fe b1 99 3f
       -0.9595665 1.6183203 1.6812781 1.2007444
000280 f8 d1 12 40 d5 79 8c c0 e7 3c ed 3f c9 80 41 3f
       2.2940655 -4.389872 1.8534211 0.75587136
000290 2a 7a b4 bf dd f1 90 bf 51 f3 bd 3f 92 50 46 bf
       -1.4099782 -1.1323811 1.4839879 -0.7746669
0002a0 0e 51 4c bf 85 0f 82 3e 3e 09 aa 3f 4b 34 ed bf
       -0.7981118 0.25402465 1.328407 -1.8531584
0002b0 fe 03 62 bf b3 34 b8 3f d0 c9 aa 3f 14 04 95 3f
       -0.8828734 1.4391083 1.3342838 1.164187
0002c0 9e 21 3d be 1e 06 57 3e 15 22 ad be ea ba 01 be
       -0.18469855 0.20998427 -0.33815065 -0.12668958
0002d0 68 ac c6 be 53 cf 69 be cb 01 a6 be 4d c0 d9 3e
       -0.3880341 -0.22832994 -0.32423243 0.42529526
0002e0 72 51 33 be 5f 6b 01 3d 8c 49 a9 be 1a 40 c7 be
       -0.17511538 0.031596538 -0.33063924 -0.38916093
0002f0 2f 23 3f 3e 6b f3 84 bd d9 86 a5 bd ec 89 ac 3e
       0.18665765 -0.06491741 -0.08082361 0.33698976
000300 ef 28 31 40 59 1a 91 c0 16 67 d4 3f 31 70 7d 3f
       2.7681234 -4.5344663 1.6593959 0.98999316
000310 33 51 cb bf cc bb 95 bf 1f 12 95 3f 82 d7 80 bf
       -1.5884155 -1.1697936 1.1646155 -1.0065768
000320 44 ab 09 be fc 7d 35 3f 42 1d 57 3f 9a bb f4 bf
       -0.13444239 0.7089536 0.8402902 -1.9119751
000330 a2 87 3b bf 50 c5 c1 3f 63 80 9e 3f c2 62 63 3f
       -0.73253834 1.513834 1.238293 0.8882257
000340 45 46 31 3e 12 7b 8c 3e 4c 5d 1f 3d 25 97 bc bd
       0.17311962 0.27437645 0.038907334 -0.09208516
000350 7f 8c c5 3c 69 e2 c5 3e 0b a2 57 be 13 cb c5 3e
       0.024114845 0.386493 -0.21057908 0.38631496
000360 69 58 da bd 69 a2 c1 be cb c1 fb 3d 84 6c 43 be
       -0.10661394 -0.37819222 0.122928225 -0.19084364
000370 9c e8 8f be b2 03 c0 3e ec bb e4 3b 7e bd c4 be
       -0.28107154 0.3750282 0.00698041 -0.3842582
000380 86 d5 16 3e cb af 8a 3e e6 90 cd be 40 06 fe bc
       0.1472989 0.27087244 -0.4014961 -0.03100884
000390 1e 4a 54 3e b8 b4 13 bd e7 5a d4 3e 6f 36 90 3e
       0.20731398 -0.03606102 0.41475603 0.2816653
0003a0 60 64 dc be 32 b2 04 3e 36 8e 10 3e 5a 94 1d 3e
       -0.4304533 0.12958601 0.14116749 0.15388623
0003b0 16 5f 5c 3e b7 60 af 3e 0a e2 23 3e 9e 5e 39 be
       0.21520647 0.34253475 0.16004196 -0.181025
0003c0 65 10 bc be c2 01 93 bd ec 93 c4 3e 77 ad 45 3e
       -0.36731258 -0.0717807 0.38394105 0.19304453
0003d0 f3 29 c2 3e ae 36 d8 3d 85 60 c7 be 03 3f a4 3e
       0.3792263 0.10557304 -0.38940826 0.32079324
0003e0 6a 3e 12 3e 5f fd f9 3d 46 09 d5 bd 6e 90 d6 3e
       0.14281622 0.1220653 -0.104021594 0.41907066
0003f0 7b c5 50 be 62 30 8e 3e 02 09 95 3d 2c b1 a5 3d
       -0.20387833 0.27771288 0.07277109 0.080904335

sequential/dense_1/MatMul f4 [2, 16]
000000 b9 6a 52 c0 07 0c 79 3e 79 74 16 bf 46 b7 cb be
       -3.2877638 0.24320994 -0.58771473 -0.39788264
000010 07 59 d7 be 61 00 69 be e4 23 91 bd 18 b3 c1 be
       -0.4206011 -0.22754051 -0.07086924 -0.3783195
000020 d9 18 1a 3e 71 9b 52 c0 77 31 5f c0 c3 c6 f4 3d
       0.15048541 -3.2907374 -3.487394 0.11951973
000030 b6 1a 6c c0 8a 50 6c be 1e 6c 26 be ca 0c b3 bd
       -3.6891303 -0.23077598 -0.16252181 -0.08742674
000040 de c1 3f 40 08 5d 00 3f d6 ad cf 3e b8 bc c8 3d
       2.9962077 0.50141954 0.40562314 0.0980162
000050 f0 7e da be 42 01 9d be db 96 3b 3e b3 e9 ee be
       -0.4267497 -0.30665022 0.18319266 -0.46662673
000060 e3 66 8b 3e 3b 7f 63 40 41 69 58 40 24 b9 f2 3e
       0.27226934 3.5546405 3.3814242 0.47406876
000070 13 f4 4d 40 e2 20 35 3e 41 88 e2 be 2f ab fc 3e
       3.218022 0.17688325 -0.44244578 0.49349353
